deployment/classification/model/classification_q.tflite (tflite, 770864 bytes, 19 tensors)

Fly_DNN/C3/Conv2D/ReadVariableOp i1 [1, 4, 4, 2] scale=0.0005184967 zero_point=0
-0.058590125 -0.031628296 -0.06584908 0.0 -0.047183197 -0.04044274 -0.057034634 -0.04199823
-0.02177686 -0.020739866 -0.03422078 -0.011406926 -0.04199823 -0.04407222 -0.04044274 -0.0041479734
-0.05133117 -0.04199823 -0.036294766 -0.028517317 -0.057034634 -0.008295947 -0.024887841 -0.03577627
-0.043035224 -0.016073396 -0.0466647 -0.03266529 -0.042516727 -0.0072589535 -0.015036403 -0.014517907
00000000: 8fc3 8100 a5b2 92af d6d8 beea afab b2f8
00000010: 9daf bac9 92f0 d0bb ade1 a6c1 aef2 e3e4

Fly_DNN/L1/Conv2D/ReadVariableOp i1 [1, 5, 5, 1] scale=0.0005569664 zero_point=0
-0.04177248 -0.028405286 -0.05569664 -0.06015237 -0.038430683 -0.048456077 -0.047342144 -0.051797874
-0.06070934 -0.007240563 -0.032861017 -0.030633152 -0.03564585 -0.042886414 -0.018936858 -0.04455731
-0.05625361 -0.013367194 -0.07073473 -0.059038438 -0.03508888 -0.057924505 -0.012253261 -0.05124091
-0.011139328
00000000: b5cd 9c94 bba9 aba3 93f3 c5c9 c0b3 deb0
00000010: 9be8 8196 c198 eaa4 ec

Fly_DNN/L2/Conv2D/ReadVariableOp i1 [1, 5, 5, 1] scale=0.0006211346 zero_point=0
0.025466518 0.06956708 0.02981446 0.047827363 0.04037375 0.04223715 0.049690768 0.031677864
0.078884095 0.07267275 0.022360845 0.06397686 0.04472169 0.046585094 0.06584027 0.052175306
0.05155417 0.06708254 0.07018821 0.04906963 0.022981979 0.031677864 0.0664614 0.05714438
0.07267275
00000000: 2970 304d 4144 5033 7f75 2467 484b 6a54
00000010: 536c 714f 2533 6b5c 75

Fly_DNN/L3/Conv2D/ReadVariableOp i1 [1, 5, 5, 1] scale=0.00026116194 zero_point=0
0.02272109 0.022459928 0.019064821 0.0028727814 0.0060067247 0.022198765 0.017759012 0.013058097
0.015930878 0.019325983 0.0062678866 0.033167567 0.026377356 0.0060067247 0.02428806 0.03081711
0.0133192595 -0.0018281336 0.031078272 0.030294785 0.009140668 -0.0033951052 0.011752287 0.023765737
0.008879506
00000000: 5756 490b 1755 4432 3d4a 187f 6517 5d76
00000010: 33f9 7774 23f3 2d5b 22

Fly_DNN/LC11/Conv2D/ReadVariableOp i1 [1, 3, 3, 2] scale=0.0011850892 zero_point=0
0.024886874 0.09836241 0.0059254463 0.09480714 0.01540616 0.07821589 0.027257053 0.15050633
0.004740357 0.13747035 0.016591249 0.13391508 0.039107945 0.09480714 0.018961428 0.0995475
0.026071964 0.0770308
00000000: 1553 0550 0d42 177f 0474 0e71 2150 1054
00000010: 1641

Fly_DNN/LC15/Conv2D/ReadVariableOp i1 [1, 3, 3, 2] scale=0.00062144984 zero_point=0
0.029208142 0.062144984 0.053444687 0.059037734 0.07892413 0.021129295 0.011186097 0.03604409
0.0055930484 0.021129295 0.034801193 -0.003728699 0.03542264 -0.0031072493 0.07519543 0.011807547
0.006835948 0.010564648
00000000: 2f64 565f 7f22 123a 0922 38fa 39fb 7913
00000010: 0b11

Fly_DNN/LC4/Conv2D/ReadVariableOp i1 [1, 3, 3, 2] scale=0.0003616043 zero_point=0
-0.0253123 0.009401712 -0.039053265 0.016633797 -0.036883637 0.015187381 -0.016995402 0.045923747
-0.0336292 0.039414868 -0.03869166 0.009040107 -0.024950696 0.041584495 -0.039414868 0.016633797
-0.035075616 0.021696258
00000000: ba1a 942e 9a2a d17f a36d 9519 bb73 932e
00000010: 9f3c

Fly_DNN/LPLC2/Conv2D/ReadVariableOp i1 [1, 3, 3, 2] scale=0.0013016787 zero_point=0
0.16401152 -0.110642694 0.10153094 0.037748683 0.07419568 0.05857554 0.09241919 0.031240288
0.062480576 0.15620145 0.046860434 0.13277122 0.009111751 0.026033575 -0.023430217 0.1653132
-0.07679904 0.11194437
00000000: 7eab 4e1d 392d 4718 3078 2466 0714 ee7f
00000010: c556

Fly_DNN/Mi1Tm3/Conv2D/ReadVariableOp i1 [1, 4, 4, 2]
124 33 99 53 48 25 89 101
103 115 127 127 40 51 39 124
106 46 75 103 74 43 29 115
46 32 70 7 97 93 100 0
00000000: 7c21 6335 3019 5965 6773 7f7f 2833 277c
00000010: 6a2e 4b67 4a2b 1d73 2e20 4607 615d 6400

Fly_DNN/Mi9/Conv2D/ReadVariableOp i1 [1, 4, 4, 1] scale=0.0005395742 zero_point=0
-0.038849343 -0.05935316 -0.026439136 -0.041007638 -0.043165937 -0.068525925 -0.044245083 -0.011331058
-0.059892736 -0.06205103 -0.019424671 -0.024820413 -0.058813587 -0.018885097 -0.049640827 -0.055576142
00000000: b892 cfb4 b081 aeeb 918d dcd2 93dd a499

Fly_DNN/T2/Conv2D/ReadVariableOp i1 [1, 3, 3, 8] scale=0.00038754672 zero_point=0
0.005813201 0.0062007476 0.0011626402 0.010076215 0.03797958 0.037204485 -0.008526028 0.016276963
0.0023252803 0.0011626402 0.0038754672 0.010463761 0.028678458 0.025965631 -0.014726776 0.018602243
0.013176588 -0.009688668 -0.0015501869 0.020927522 0.022090163 0.022865256 -0.013176588 0.029841097
-0.008526028 0.00077509345 0.014339229 0.009688668 0.049218435 0.0356543 -0.010463761 0.03759203
0.0062007476 -0.0027128272 -0.0034879204 0.014726776 0.043405235 0.02131507 -0.017052056 0.0356543
-0.004263014 -0.012401495 0.017439602 0.012789042 0.04030486 0.03294147 -0.015501869 0.032553926
0.016276963 -0.0023252803 0.0062007476 0.014726776 0.046893153 0.02480299 -0.008913575 0.018214695
-0.0015501869 -0.009301121 -0.0027128272 0.013564135 0.041855045 0.012789042 -0.015114322 0.021702617
0.010851309 0.010851309 -0.0038754672 0.024027897 0.0356543 0.025578083 -0.013951682 0.014339229
00000000: 0f10 031a 6260 ea2a 0603 0a1b 4a43 da30
00000010: 22e7 fc36 393b de4d ea02 2519 7f5c e561
00000020: 10f9 f726 7037 d45c f5e0 2d21 6855 d854
00000030: 2afa 1026 7940 e92f fce8 f923 6c21 d938
00000040: 1c1c f63e 5c42 dc25

Fly_DNN/T3/Conv2D/ReadVariableOp i1 [1, 3, 3, 8] scale=0.000777717 zero_point=0
-0.045885302 -0.065328225 -0.07232768 -0.034219548 0.008554887 0.002333151 -0.039663564 -0.001555434
-0.062995076 -0.062995076 -0.06921681 -0.040441282 -0.020998359 0.003888585 -0.03344183 -0.030330962
-0.06921681 -0.041996717 -0.058328774 -0.029553246 0.005444019 -0.025664661 -0.027220095 -0.01555434
-0.09877006 -0.07699398 -0.07154996 -0.06143964 0.03110868 -0.004666302 -0.045107584 0.006221736
-0.076216266 -0.08788202 -0.06143964 -0.044329867 0.021776076 0.029553246 -0.034997266 -0.014776623
-0.05910649 -0.076216266 -0.09021517 -0.05677334 -0.003110868 0.004666302 -0.029553246 -0.006221736
-0.057551056 -0.087104306 -0.043552153 -0.05444019 0.009332604 -0.020998359 -0.040441282 -0.003888585
-0.06688366 -0.06221736 -0.05444019 -0.050551604 0.03110868 -0.01788749 -0.028775528 -0.004666302
-0.073883116 -0.057551056 -0.051329322 -0.052884754 0.028775528 0.018665208 -0.02333151 -0.0101103205
00000000: c5ac a3d4 0b03 cdfe afaf a7cc e505 d5d9
00000010: a7ca b5da 07df ddec 819d a4b1 28fa c608
00000020: 9e8f b1c7 1c26 d3ed b49e 8cb7 fc06 daf8
00000030: b690 c8ba 0ce5 ccfb aab0 babf 28e9 dbfa
00000040: a1b6 bebc 2518 e2f3

Fly_DNN/T4/Conv2D/ReadVariableOp i1 [1, 5, 5, 4] scale=0.0006694419 zero_point=0
0.08434968 0.0702914 -0.022091582 0.051547024 0.08167191 0.03949707 -0.02142214 0.07430805
0.06694419 0.03949707 -0.009372186 0.05623312 0.040166512 0.057572003 -0.006694419 0.044183165
0.05020814 0.026777675 -0.004686093 0.04552205 0.08501912 0.041505396 -0.020752698 0.08234135
0.05355535 0.040835954 -0.018744372 0.059580326 0.040835954 0.036149863 -0.01071107 0.065605305
0.05623312 0.054894235 -0.006694419 0.06426642 0.06493586 0.022091582 -0.004686093 0.052216467
0.05623312 0.048199818 -0.012049954 0.058241446 0.040835954 0.025438791 -0.008033303 0.020752698
0.03146377 0.038158186 -0.0006694419 0.04217484 0.025438791 0.020752698 0.0040166513 0.029455442
0.013388838 0.013388838 0.008033303 0.046860933 0.016736047 0.008033303 -0.0006694419 0.016736047
0.036819305 0.013388838 0.0026777675 0.029455442 0.047530375 0.0020083257 0.012719396 0.004686093
0.040166512 0.028786002 0.01405828 0.034141537 0.03146377 0.03146377 0.015397163 0.004686093
0.03146377 0.006024977 0.004686093 0.038158186 0.032802653 0.006694419 0.010041628 0.009372186
-0.008702745 -0.006694419 0.01740549 0.030794326 -0.005355535 0.008033303 0.020083256 0.024769349
-0.0006694419 0.018074932 0.02142214 0.020083256
00000000: 7e69 df4d 7a3b e06f 643b f254 3c56 f642
00000010: 4b28 f944 7f3e e17b 503d e459 3d36 f062
00000020: 5452 f660 6121 f94e 5448 ee57 3d26 f41f
00000030: 2f39 ff3f 261f 062c 1414 0c46 190c ff19
00000040: 3714 042c 4703 1307 3c2b 1533 2f2f 1707
00000050: 2f09 0739 310a 0f0e f3f6 1a2e f80c 1e25
00000060: ff1b 201e

Fly_DNN/T5/Conv2D/ReadVariableOp i1 [1, 5, 5, 4] scale=0.00069622084 zero_point=0
-0.031329937 -0.02506395 -0.00069622084 0.013924417 0.00835465 -0.004177325 0.01601308 0.04038081
0.038292147 0.02506395 0.022975288 0.010443313 0.009747092 0.023671508 0.05082412 0.03202616
0.022975288 0.011835754 0.017405521 0.02436773 -0.012531975 -0.010443313 -0.0055697667 -0.0013924417
0.04038081 0.031329937 0.054305226 0.02436773 0.07240697 0.041773252 0.054305226 0.034811042
0.075888075 0.054305226 0.04873546 0.059178773 0.029241275 0.0501279 0.029937496 0.05778633
0.009050871 0.0 0.01601308 0.034811042 0.059178773 0.059874993 0.052216563 0.0668372
0.069622084 0.038988367 0.061963655 0.061963655 0.061963655 0.045950577 0.05778633 0.068229645
0.04246947 0.068229645 0.069622084 0.0800654 0.038292147 0.009747092 0.0167093 0.021582846
0.03202616 0.034114823 0.07101452 0.07101452 0.052912783 0.063356094 0.08842005 0.057090107
0.054305226 0.062659875 0.05082412 0.0501279 0.07519185 0.069622084 0.07449563 0.04943168
0.031329937 0.009747092 0.004873546 0.013924417 0.05778633 0.041773252 0.045950577 0.063356094
0.0501279 0.061963655 0.05569767 0.053609006 0.04943168 0.052912783 0.08563516 0.0501279
0.068229645 0.03202616 0.03202616 0.05848255
00000000: d3dc ff14 0cfa 173a 3724 210f 0e22 492e
00000010: 2111 1923 eef1 f8fe 3a2d 4e23 683c 4e32
00000020: 6d4e 4655 2a48 2b53 0d00 1732 5556 4b60
00000030: 6438 5959 5942 5362 3d62 6473 370e 181f
00000040: 2e31 6666 4c5b 7f52 4e5a 4948 6c64 6b47
00000050: 2d0e 0714 533c 425b 4859 504d 474c 7b48
00000060: 622e 2e54

Fly_DNN/Tm124/Conv2D/ReadVariableOp i1 [1, 4, 4, 3]
94 43 62 127 108 61 47 37
59 92 60 117 43 87 94 56
58 88 113 127 42 94 41 102
66 45 71 48 41 124 94 93
127 99 51 119 63 75 116 121
113 35 102 63 69 49 62 93
00000000: 5e2b 3e7f 6c3d 2f25 3b5c 3c75 2b57 5e38
00000010: 3a58 717f 2a5e 2966 422d 4730 297c 5e5d
00000020: 7f63 3377 3f4b 7479 7123 663f 4531 3e5d

Fly_DNN/Tm9/Conv2D/ReadVariableOp i1 [1, 4, 4, 1] scale=0.00058051915 zero_point=0
0.051666204 0.036572706 0.047022052 0.059793472 0.038894784 0.029606476 0.052827243 0.070242815
0.035411667 0.041797377 0.059793472 0.06153503 0.07372593 0.069081776 0.048763607 0.06211555
00000000: 593f 5167 4333 5b79 3d48 676a 7f77 546b

Fly_DNN/classification/MatMul/ReadVariableOp/transpose i1 [3, 256] scale=0.007537381 zero_point=0
0.0 -0.26380834 0.0 0.0 0.0 0.0 0.0 0.0
0.0 0.0 0.0 0.0 0.0 0.0 0.0 0.0
0.0 0.0 0.0 0.0 0.0 0.0 0.0 0.0
0.0 0.0 0.0 0.0 0.0 0.0 0.0 0.0
0.0 0.0 0.0 0.0 0.0 0.0 0.0 0.0
0.0 0.0 0.045224287 0.0 0.0 0.0 0.0 0.0
0.0 0.0 0.0 0.0 0.0 0.0 0.0 0.0
0.0 0.0 0.0 0.0 0.0 0.0 0.0 0.0
0.0 0.0 0.0 0.0 0.0 0.0 0.0 0.0
0.0 0.0 0.0 0.0 0.0 0.0 0.0 0.0
0.0 0.0 0.0 0.0 0.0 0.0 0.0 0.0
0.0 0.0 0.0 0.0 0.0 0.0 0.0 0.0
0.0 0.0 0.0 0.0 0.0 0.0 0.0 0.0
0.0 0.0 0.0 0.0 0.0 0.0 0.0 0.0
0.0 0.0 0.0 -0.29395786 0.0 0.0 0.0 0.0
0.0 0.0 0.47485498 0.0 0.0 0.0 0.0 0.0
0.0 0.0 0.0 0.0 0.0 -0.17335975 0.0 0.0
0.0 0.0 0.0 0.0 0.0 0.0 0.0 0.0
0.0 0.0 0.0 0.0 0.0 0.0 0.0 0.0
0.0 0.0 0.0 -0.30149522 0.0 0.0 0.0 0.0
0.0 0.0 0.0 0.0 0.0 0.0 0.0 0.0
0.0 0.0 0.0 0.0 0.0 0.0 0.9572474 0.0
0.0 0.0 0.0 0.0 0.0 0.0 0.0 0.0
0.0 0.0 0.0 0.0 0.0 0.0 0.0 0.0
0.0 0.0 0.0 0.0 0.0 0.0 0.0 0.0
0.0 0.0 0.0 0.0 -0.45978022 0.0 0.0 0.0
0.0 0.0 0.0 0.0 0.0 0.0 0.0 0.0
0.0 0.0 0.0 0.0 0.0 0.0 0.0 0.0
0.0 0.0 0.0 0.0 0.0 0.007537381 0.0 0.0
0.0 0.0 0.0 0.0 0.0 0.0 0.0 0.0
0.0 0.0 -0.41455594 0.0 0.0 0.0 0.0 0.0
0.0 0.0 0.0 0.0 0.0 0.0 0.0 0.0
00000000: 00dd 0000 0000 0000 0000 0000 0000 0000
00000010: 0000 0000 0000 0000 0000 0000 0000 0000
00000020: 0000 0000 0000 0000 0000 0600 0000 0000
00000030: 0000 0000 0000 0000 0000 0000 0000 0000
00000040: 0000 0000 0000 0000 0000 0000 0000 0000
00000050: 0000 0000 0000 0000 0000 0000 0000 0000
00000060: 0000 0000 0000 0000 0000 0000 0000 0000
00000070: 0000 00d9 0000 0000 0000 3f00 0000 0000
00000080: 0000 0000 00e9 0000 0000 0000 0000 0000
00000090: 0000 0000 0000 0000 0000 00d8 0000 0000
000000a0: 0000 0000 0000 0000 0000 0000 0000 7f00
000000b0: 0000 0000 0000 0000 0000 0000 0000 0000
000000c0: 0000 0000 0000 0000 0000 0000 c300 0000
000000d0: 0000 0000 0000 0000 0000 0000 0000 0000
000000e0: 0000 0000 0001 0000 0000 0000 0000 0000
000000f0: 0000 c900 0000 0000 0000 0000 0000 0000

Fly_DNN/dense/MatMul/ReadVariableOp/transpose i1 [512, 1200] scale=0.0012824998 zero_point=0
0.0 0.0 0.0 0.0 0.0 0.0 0.0 0.0
0.0 0.0 0.0 0.0 0.0 0.0 0.0 0.0
0.0 0.0 0.0 0.0 0.0 0.0 0.0 0.0
0.0 0.0 0.0 0.0 0.0 0.0 0.0 0.0
0.0 0.0 0.0 0.0 0.0 0.0 0.0 0.0
0.0 0.0 0.0 0.0 0.0 0.0 0.0 0.0
0.0 0.0 0.0 0.0 0.0 0.0 0.0 0.0
0.0 0.0 0.0 0.0 0.0 0.0 0.0 0.0
0.0 0.0 0.0 0.0 0.0 0.0 0.0 0.0
0.0 0.0 0.0 0.0 0.0 0.0 0.0 0.0
0.0 0.0 0.0 0.0 0.0 0.0 0.0 0.0
0.0 0.0 0.0 0.0 0.0 0.0 0.0 0.0
0.0 0.0 0.0 0.0 0.0 0.0 0.0 0.0
0.0 0.0 0.0 0.0 0.0 0.0 0.0 0.0
0.0 0.0 0.0 0.0 0.0 0.0 0.0 0.0
0.0 0.0 0.0 0.0 0.0 0.0 0.0 0.0
0.0 0.0 0.0 0.0 0.0 0.0 0.0 0.0
0.0 0.0 0.0 0.0 0.0 0.0 0.0 0.0
0.0 0.0 0.0 0.0 0.0 0.0 0.0 0.0
0.0 0.0 0.0 0.0 0.0 0.0 0.0 0.0
0.0 0.0 0.0 0.0 0.0 0.0 0.0 0.0
0.0 0.0 0.0 0.0 0.0 0.0 0.0 0.0
0.0 0.0 0.0 0.0 0.0 0.0 0.0 0.0
0.0 0.0 0.0 0.0 0.0 0.0 0.0 0.0
0.0 0.0 0.0 0.0 0.0 0.0 0.0 0.0
0.0 0.0 0.0 0.0 0.0 0.0 0.0 0.0
0.0 0.0 0.0 0.0 0.0 0.0 0.0 0.0
0.0 0.0 0.0 0.0 0.0 0.0 0.0 0.0
0.0 0.0 0.0 0.0 0.0 0.0 0.0 0.0
0.0 0.0 0.0 0.0 0.0 0.0 0.0 0.0
0.0 0.0 0.0 0.0 0.0 0.0 0.0 0.0
0.0 0.0 0.0 0.0 0.0 0.0 0.0 0.0
00000000: 0000 0000 0000 0000 0000 0000 0000 0000
00000010: 0000 0000 0000 0000 0000 0000 0000 0000
00000020: 0000 0000 0000 0000 0000 0000 0000 0000
00000030: 0000 0000 0000 0000 0000 0000 0000 0000
00000040: 0000 0000 0000 0000 0000 0000 0000 0000
00000050: 0000 0000 0000 0000 0000 0000 0000 0000
00000060: 0000 0000 0000 0000 0000 0000 0000 0000
00000070: 0000 0000 0000 0000 0000 0000 0000 0000
00000080: 0000 0000 0000 0000 0000 0000 0000 0000
00000090: 0000 0000 0000 0000 0000 0000 0000 0000
000000a0: 0000 0000 0000 0000 0000 0000 0000 0000
000000b0: 0000 0000 0000 0000 0000 0000 0000 0000
000000c0: 0000 0000 0000 0000 0000 0000 0000 0000
000000d0: 0000 0000 0000 0000 0000 0000 0000 0000
000000e0: 0000 0000 0000 0000 0000 0000 0000 0000
000000f0: 0000 0000 0000 0000 0000 0000 0000 0000

Fly_DNN/dense_1/MatMul/ReadVariableOp/transpose i1 [256, 512] scale=0.0058517684 zero_point=0
0.0 0.0 0.0 0.0 0.0 0.0 0.0 0.0
0.0 0.0 0.0 0.0 0.0 0.0 0.0 0.0
0.0 0.0 0.0 0.0 0.0 0.0 0.0 0.0
0.0 0.0 0.0 0.0 0.0 0.0 0.0 0.0
0.0 0.0 0.0 0.0 0.0 0.0 0.0 0.0
0.0 0.0 0.0 0.0 0.0 0.0 0.0 0.0
0.0 0.0 0.0 0.0 0.0 0.0 0.0 0.0
0.0 0.0 0.0 0.0 0.0 0.0 0.0 0.0
0.0 0.0 0.0 0.0 0.0 0.0 0.0 0.0
0.0 0.0 0.0 0.0 0.0 0.0 0.0 0.0
0.0 0.0 0.0 0.0 0.0 0.0 0.0 0.0
0.0 0.0 0.0 0.0 0.0 0.0 0.0 0.0
0.0 0.0 0.0 0.0 0.0 0.0 0.0 0.0
0.0 0.0 0.0 0.0 0.0 0.0 0.0 0.0
0.0 0.0 0.0 0.0 0.0 0.0 0.0 0.0
0.0 0.0 0.0 0.0 0.0 0.0 0.0 0.0
0.0 0.0 0.0 0.0 0.0 0.0 0.0 0.0
0.0 0.0 0.0 0.0 0.0 0.0 0.0 0.0
0.0 0.0 0.0 0.0 0.0 0.0 0.0 0.0
0.0 0.0 0.0 0.0 0.0 0.0 0.0 0.0
0.0 0.0 0.0 0.0 0.0 0.0 0.0 0.0
0.0 0.0 0.0 0.0 0.0 0.0 0.0 0.0
0.0 0.0 0.0 0.0 0.0 0.0 0.0 0.0
0.0 0.0 0.0 0.0 0.0 0.0 0.0 0.0
0.0 0.0 0.0 0.0 0.0 0.0 0.0 0.0
0.0 0.0 0.0 0.0 0.0 0.0 0.0 0.0
0.0 0.0 0.0 0.0 0.0 0.0 0.0 0.0
0.0 0.0 0.0 0.0 0.0 0.0 0.0 0.0
0.0 0.0 0.0 0.0 0.0 0.0 0.0 0.0
0.0 0.0 0.0 0.0 0.0 0.0 0.0 0.0
0.0 0.0 0.0 0.0 0.0 0.0 0.0 0.0
0.0 0.0 0.0 0.0 0.0 0.0 0.0 0.0
00000000: 0000 0000 0000 0000 0000 0000 0000 0000
00000010: 0000 0000 0000 0000 0000 0000 0000 0000
00000020: 0000 0000 0000 0000 0000 0000 0000 0000
00000030: 0000 0000 0000 0000 0000 0000 0000 0000
00000040: 0000 0000 0000 0000 0000 0000 0000 0000
00000050: 0000 0000 0000 0000 0000 0000 0000 0000
00000060: 0000 0000 0000 0000 0000 0000 0000 0000
00000070: 0000 0000 0000 0000 0000 0000 0000 0000
00000080: 0000 0000 0000 0000 0000 0000 0000 0000
00000090: 0000 0000 0000 0000 0000 0000 0000 0000
000000a0: 0000 0000 0000 0000 0000 0000 0000 0000
000000b0: 0000 0000 0000 0000 0000 0000 0000 0000
000000c0: 0000 0000 0000 0000 0000 0000 0000 0000
000000d0: 0000 0000 0000 0000 0000 0000 0000 0000
000000e0: 0000 0000 0000 0000 0000 0000 0000 0000
000000f0: 0000 0000 0000 0000 0000 0000 0000 0000
