weights/fly_CNN_8bit.tflite (tflite, 770720 bytes, 19 tensors)

Fly_DNN/C3/Conv2D/ReadVariableOp i1 [1, 4, 4, 2] scale=0.0015459671 zero_point=0
00000000: 7f84 37e9 1fb2 0bc2 67ec 241f ee19 ce18
00000010: 2dd1 e02b d0ee 9351 08d9 f23c c724 8463
0.19633782 -0.19169992 0.08502819 -0.035557244 0.04792498 -0.120585434 0.017005637 -0.09584996
0.15923461 -0.030919341 0.055654816 0.04792498 -0.027827408 0.038649175 -0.07729835 0.03710321
0.069568515 -0.07266045 -0.049470946 0.06647658 -0.07420642 -0.027827408 -0.1685104 0.12522334
0.012367737 -0.060292717 -0.021643538 0.09275802 -0.088120125 0.055654816 -0.19169992 0.15305074

Fly_DNN/L1/Conv2D/ReadVariableOp i1 [1, 5, 5, 1] scale=0.0007723668 zero_point=0
00000000: d5a1 af01 bdf9 cdf1 cafe d2d1 81cf b5b0
00000010: efdd cdb7 a6ab 8f9e dc
-0.033211775 -0.073374845 -0.06256171 0.0007723668 -0.051748578 -0.005406568 -0.03939071 -0.011585502
-0.04170781 -0.0015447336 -0.035528872 -0.03630124 -0.09809059 -0.037845973 -0.05792751 -0.061789345
-0.013130236 -0.02703284 -0.03939071 -0.05638278 -0.069513015 -0.06565118 -0.08727745 -0.075691946
-0.027805205

Fly_DNN/L2/Conv2D/ReadVariableOp i1 [1, 5, 5, 1] scale=0.0006525699 zero_point=0
00000000: 025d 663b 0b2e fe15 6e4c 0c08 7371 6025
00000010: 1d49 2168 5c36 167f 31
0.0013051399 0.060689002 0.06656213 0.038501624 0.0071782693 0.030018216 -0.0013051399 0.013703968
0.07178269 0.049595315 0.00783084 0.0052205594 0.07504554 0.0737404 0.06264672 0.024145087
0.018924529 0.047637604 0.021534808 0.06786727 0.060036432 0.035238776 0.014356539 0.082876384
0.031975925

Fly_DNN/L3/Conv2D/ReadVariableOp i1 [1, 5, 5, 1] scale=0.0020911405 zero_point=0
00000000: 564d 3d1d f139 6a50 7322 704d 3f52 297f
00000010: 3776 666b c60c 2752 33
0.17983808 0.16101782 0.12755957 0.060643073 -0.03136711 0.11919501 0.2216609 0.16729124
0.24048115 0.071098775 0.23420773 0.16101782 0.13174185 0.17147352 0.08573676 0.26557484
0.11501273 0.24675457 0.21329632 0.22375204 -0.12128615 0.025093686 0.08155448 0.17147352
0.10664816

Fly_DNN/LC11/Conv2D/ReadVariableOp i1 [1, 3, 3, 2] scale=0.00021449484 zero_point=0
00000000: e319 5912 f42e 2936 e967 3681 3c33 a5b5
00000010: 9794
-0.0062203505 0.005362371 0.01909004 0.0038609072 -0.002573938 0.009866763 0.008794288 0.011582721
-0.0049333815 0.022092968 0.011582721 -0.027240844 0.012869691 0.010939237 -0.019519031 -0.016087113
-0.022521958 -0.023165442

Fly_DNN/LC15/Conv2D/ReadVariableOp i1 [1, 3, 3, 2] scale=0.0012749891 zero_point=0
00000000: 2043 6a64 3060 6343 7f4d 6445 0556 683b
00000010: 3443
0.04079965 0.08542427 0.13514884 0.12749891 0.06119948 0.12239896 0.12622392 0.08542427
0.16192362 0.09817416 0.12749891 0.08797425 0.0063749454 0.10964906 0.13259886 0.075224355
0.06629943 0.08542427

Fly_DNN/LC4/Conv2D/ReadVariableOp i1 [1, 3, 3, 2] scale=0.00027288595 zero_point=0
00000000: 0db0 4246 b61d 3250 ca81 0a26 f65c 9d92
00000010: 5c06
0.0035475173 -0.021830875 0.018010473 0.019102016 -0.02019356 0.007913693 0.013644298 0.021830875
-0.014735841 -0.034656517 0.0027288594 0.010369666 -0.0027288594 0.025105508 -0.02701571 -0.030017454
0.025105508 0.0016373157

Fly_DNN/LPLC2/Conv2D/ReadVariableOp i1 [1, 3, 3, 2] scale=0.0010750352 zero_point=0
00000000: 2d7b 7446 576a 7f70 7b1d 5363 473f 4e46
00000010: 154f
0.048376583 0.13222933 0.124704085 0.075252466 0.09352806 0.11395373 0.13652948 0.120403945
0.13222933 0.031176021 0.08922792 0.10642848 0.076327495 0.067727216 0.083852746 0.075252466
0.02257574 0.08492778

Fly_DNN/Mi1Tm3/Conv2D/ReadVariableOp i1 [1, 4, 4, 2]
00000000: 4a4e 4710 5941 5144 7228 1f54 7f17 5230
00000010: 59f9 5a7f 6724 5d40 0f0a ff1c 3120 450b
74 78 71 16 89 65 81 68
114 40 31 84 127 23 82 48
89 -7 90 127 103 36 93 64
15 10 -1 28 49 32 69 11

Fly_DNN/Mi9/Conv2D/ReadVariableOp i1 [1, 4, 4, 1] scale=0.0013726912 zero_point=0
00000000: c091 94a0 818d aba4 bd84 afb3 9fa3 a3ce
-0.08785224 -0.15236872 -0.14825065 -0.13177836 -0.17433178 -0.15785949 -0.11667876 -0.1262876
-0.09197031 -0.17021371 -0.111187994 -0.10569723 -0.13315105 -0.12766029 -0.12766029 -0.06863456

Fly_DNN/T2/Conv2D/ReadVariableOp i1 [1, 3, 3, 8] scale=0.0005560891 zero_point=0
00000000: 2b0c 5031 5a60 ee22 325a 4c59 3139 f83f
00000010: 3a1d 507f 2034 ff70 4c3c 493a 4141 f441
00000020: 1739 3138 3133 fd78 375d 0b49 7161 0344
00000030: 4208 4577 7a30 fd37 4b58 413f 2c19 0534
00000040: 2f54 191d 3d19 0a1a
0.023911832 0.006673069 0.044487126 0.027248366 0.05004802 0.053384554 -0.010009604 0.01890703
0.027804455 0.05004802 0.04226277 0.04949193 0.027248366 0.03169708 -0.004448713 0.035033613
0.03225317 0.016126584 0.044487126 0.070623316 0.017794851 0.028916633 -0.0005560891 0.06228198
0.04226277 0.033365346 0.040594503 0.03225317 0.03614579 0.03614579 -0.006673069 0.03614579
0.012790049 0.03169708 0.027248366 0.03114099 0.027248366 0.028360544 -0.0016682673 0.06673069
0.0305849 0.051716287 0.00611698 0.040594503 0.06283807 0.053940643 0.0016682673 0.03781406
0.03670188 0.004448713 0.038370147 0.066174604 0.06784287 0.026692277 -0.0016682673 0.0305849
0.04170668 0.04893584 0.03614579 0.035033613 0.02446792 0.013902227 0.0027804454 0.028916633
0.026136188 0.046711486 0.013902227 0.016126584 0.033921435 0.013902227 0.005560891 0.014458316

Fly_DNN/T3/Conv2D/ReadVariableOp i1 [1, 3, 3, 8] scale=0.00052049797 zero_point=0
00000000: d2d7 e1a9 d8fa f9cd c2e0 cfcd 8d9a 03d5
00000010: d9f3 ce8a 8ae0 fde9 d4c0 c9cc 96fb fccd
00000020: c6bd bba0 d7a8 09a2 b29f fcf1 ee96 0494
00000030: e19b c281 93a1 fc8d 97f2 da9e f2b7 07f3
00000040: 9df5 cae8 d3db 009b
-0.023942906 -0.021340417 -0.016135437 -0.045283325 -0.02081992 -0.0031229877 -0.0036434857 -0.026545396
-0.032270875 -0.016655935 -0.025504401 -0.026545396 -0.059857268 -0.053090792 0.0015614938 -0.022381412
-0.020299422 -0.0067664734 -0.026024899 -0.06141876 -0.06141876 -0.016655935 -0.0015614938 -0.011971453
-0.022901911 -0.03331187 -0.028627388 -0.027065894 -0.055172786 -0.00260249 -0.0020819919 -0.026545396
-0.030188883 -0.034873363 -0.03591436 -0.049967803 -0.021340417 -0.045803823 0.004684482 -0.048926808
-0.040598843 -0.050488304 -0.0020819919 -0.0078074695 -0.009368964 -0.055172786 0.0020819919 -0.05621378
-0.016135437 -0.052570295 -0.032270875 -0.06610324 -0.05673428 -0.049447306 -0.0020819919 -0.059857268
-0.054652285 -0.0072869714 -0.019778922 -0.051008802 -0.0072869714 -0.03799635 0.0036434857 -0.0067664734
-0.0515293 -0.005725478 -0.02810689 -0.012491951 -0.023422409 -0.019258425 0.0 -0.052570295

Fly_DNN/T4/Conv2D/ReadVariableOp i1 [1, 5, 5, 4] scale=0.002042208 zero_point=0
00000000: ff11 8120 fafe b835 2127 ba3a 0f01 fd2d
00000010: f20e da2f f81c d038 2526 0935 2625 eb57
00000020: 2124 5c51 16f2 2b30 0c0f a83f 0e24 e045
00000030: 3231 d460 2a0b 453a 19fb e848 0e17 f731
00000040: 1921 3054 2016 2951 2f18 6d45 fef6 4b45
00000050: 01f8 d219 17f4 0949 ff12 ee3f 1b06 5d2a
00000060: fc03 2d2b
-0.002042208 0.034717537 -0.25936043 0.06535066 -0.012253249 -0.004084416 -0.14703898 0.10823703
0.06739287 0.07964612 -0.14295457 0.11844807 0.030633122 0.002042208 -0.0061266245 0.091899365
-0.028590914 0.028590914 -0.07760391 0.09598378 -0.016337665 0.057181828 -0.09802599 0.114363655
0.0755617 0.07760391 0.018379873 0.10823703 0.07760391 0.0755617 -0.04288637 0.1776721
0.06739287 0.07351949 0.18788314 0.16541886 0.044928577 -0.028590914 0.08781495 0.09802599
0.024506498 0.030633122 -0.1797143 0.12865911 0.028590914 0.07351949 -0.06535066 0.14091235
0.10211041 0.1000682 -0.08985715 0.19605199 0.08577274 0.022464288 0.14091235 0.11844807
0.051055204 -0.01021104 -0.049012996 0.14703898 0.028590914 0.046970785 -0.018379873 0.1000682
0.051055204 0.06739287 0.09802599 0.17154548 0.06535066 0.044928577 0.08373053 0.16541886
0.09598378 0.049012996 0.22260068 0.14091235 -0.004084416 -0.02042208 0.15316561 0.14091235
0.002042208 -0.016337665 -0.09394157 0.051055204 0.046970785 -0.024506498 0.018379873 0.14908119
-0.002042208 0.036759745 -0.036759745 0.12865911 0.05513962 0.012253249 0.18992536 0.08577274
-0.008168832 0.0061266245 0.091899365 0.08781495

Fly_DNN/T5/Conv2D/ReadVariableOp i1 [1, 5, 5, 4] scale=0.0014078051 zero_point=0
00000000: 2527 1c70 2207 0273 442a 0e7f 0b2e 345b
00000010: 4340 206c 0d1e 006a 0710 f028 0a22 f455
00000020: f226 1b61 2132 2547 0f09 295a 2514 0263
00000030: 1f0b f65f 1cfb 0153 3418 3455 052a 1657
00000040: 1b22 f062 1a25 2445 09fe fa69 3907 2956
00000050: 4341 0a41 fcfa 0155 1624 117f 0d2c 0452
00000060: 0f41 0c6c
0.05208879 0.0549044 0.039418545 0.15767418 0.047865376 0.009854636 0.0028156103 0.16189758
0.09573075 0.059127815 0.019709272 0.17879125 0.015485857 0.06475904 0.073205866 0.12811026
0.09432294 0.09009953 0.045049764 0.15204296 0.018301466 0.042234153 0.0 0.14922735
0.009854636 0.022524882 -0.022524882 0.056312203 0.014078051 0.047865376 -0.016893663 0.11966344
-0.019709272 0.053496595 0.03801074 0.1365571 0.04645757 0.070390254 0.05208879 0.099954166
0.021117076 0.012670246 0.05772001 0.12670246 0.05208879 0.028156102 0.0028156103 0.1393727
0.04364196 0.015485857 -0.014078051 0.13374148 0.039418545 -0.0070390254 0.0014078051 0.11684783
0.073205866 0.033787325 0.073205866 0.11966344 0.0070390254 0.059127815 0.030971713 0.122479044
0.03801074 0.047865376 -0.022524882 0.1379649 0.036602933 0.05208879 0.050680984 0.097138554
0.012670246 -0.0028156103 -0.008446831 0.14781953 0.08024489 0.009854636 0.05772001 0.12107124
0.09432294 0.09150733 0.014078051 0.09150733 -0.0056312205 -0.008446831 0.0014078051 0.11966344
0.030971713 0.050680984 0.023932688 0.17879125 0.018301466 0.061943427 0.0056312205 0.11544002
0.021117076 0.09150733 0.016893663 0.15204296

Fly_DNN/Tm124/Conv2D/ReadVariableOp i1 [1, 4, 4, 3]
00000000: 7015 2b64 5421 7a10 437f 7f3f 6d65 74f6
00000010: 440b 2e31 7b45 3774 1940 4f76 0ce5 6a40
00000020: 7640 2637 4e64 2226 6ffb 3931 7c60 5f7f
112 21 43 100 84 33 122 16
67 127 127 63 109 101 116 -10
68 11 46 49 123 69 55 116
25 64 79 118 12 -27 106 64
118 64 38 55 78 100 34 38
111 -5 57 49 124 96 95 127

Fly_DNN/Tm9/Conv2D/ReadVariableOp i1 [1, 4, 4, 1] scale=0.0013882577 zero_point=0
00000000: 403a 5b73 4645 4d53 3a4a 4e54 4d6e 6f7f
0.088848494 0.080518946 0.12633145 0.15964964 0.09717804 0.09578978 0.10689584 0.11522539
0.080518946 0.10273107 0.1082841 0.11661365 0.10689584 0.15270835 0.1540966 0.17630874

Fly_DNN/classification/MatMul/ReadVariableOp/transpose i1 [3, 256] scale=0.00574055 zero_point=0
00000000: fe00 00e1 0000 0500 007f 0000 0000 fd00
00000010: 00ed 0000 d400 0000 e900 0000 00d7 00f2
00000020: 00fd 0000 e100 0000 0000 0000 3000 0008
00000030: 0000 0000 0000 0000 f600 f200 fb00 35c9
00000040: 00c9 06ea f7da 0000 b3f2 00c0 0000 0003
00000050: 0000 0000 0000 0000 00ec 0000 0000 d6ad
00000060: dae2 00ee 0000 0000 0000 ad00 0000 00df
00000070: 6800 fb00 0000 f200 4900 0023 0000 01e5
00000080: 0051 0000 0000 dcec f203 00c4 0000 0300
00000090: 00ab 0000 b9f9 0000 efdd 00ee 0000 0000
000000a0: 0000 3500 0200 0011 00ee 0000 fbf2 1100
000000b0: f000 00e5 0000 0002 0000 000c f5f8 6e00
000000c0: e500 0000 0000 e2e0 0000 ec00 0000 0070
000000d0: 0000 0070 0000 0200 0000 0000 d330 00f0
000000e0: 0000 00d9 f0e6 0044 0000 0000 0000 fa00
000000f0: 0000 00fc dafe 0000 0051 0000 0012 0000
-0.0114811 0.0 0.0 -0.17795704 0.0 0.0 0.028702749 0.0
0.0 0.72904986 0.0 0.0 0.0 0.0 -0.01722165 0.0
0.0 -0.10907045 0.0 0.0 -0.2525842 0.0 0.0 0.0
-0.13203265 0.0 0.0 0.0 0.0 -0.23536254 0.0 -0.0803677
0.0 -0.01722165 0.0 0.0 -0.17795704 0.0 0.0 0.0
0.0 0.0 0.0 0.0 0.2755464 0.0 0.0 0.0459244
0.0 0.0 0.0 0.0 0.0 0.0 0.0 0.0
-0.057405498 0.0 -0.0803677 0.0 -0.028702749 0.0 0.30424914 -0.31573024
0.0 -0.31573024 0.0344433 -0.1262921 -0.05166495 -0.2181409 0.0 0.0
-0.44202235 -0.0803677 0.0 -0.3673952 0.0 0.0 0.0 0.01722165
0.0 0.0 0.0 0.0 0.0 0.0 0.0 0.0
0.0 -0.114810996 0.0 0.0 0.0 0.0 -0.2411031 -0.47646564
-0.2181409 -0.17221649 0.0 -0.1033299 0.0 0.0 0.0 0.0
0.0 0.0 -0.47646564 0.0 0.0 0.0 0.0 -0.18943815
0.59701717 0.0 -0.028702749 0.0 0.0 0.0 -0.0803677 0.0
0.41906014 0.0 0.0 0.20091924 0.0 0.0 0.00574055 -0.15499485
0.0 0.46498454 0.0 0.0 0.0 0.0 -0.2066598 -0.114810996
-0.0803677 0.01722165 0.0 -0.34443298 0.0 0.0 0.01722165 0.0
0.0 -0.48794675 0.0 0.0 -0.40757903 -0.04018385 0.0 0.0
-0.09758935 -0.20091924 0.0 -0.1033299 0.0 0.0 0.0 0.0
0.0 0.0 0.30424914 0.0 0.0114811 0.0 0.0 0.09758935
0.0 -0.1033299 0.0 0.0 -0.028702749 -0.0803677 0.09758935 0.0
-0.0918488 0.0 0.0 -0.15499485 0.0 0.0 0.0 0.0114811
0.0 0.0 0.0 0.0688866 -0.06314605 -0.0459244 0.6314605 0.0
-0.15499485 0.0 0.0 0.0 0.0 0.0 -0.17221649 -0.1836976
0.0 0.0 -0.114810996 0.0 0.0 0.0 0.0 0.6429416
0.0 0.0 0.0 0.6429416 0.0 0.0 0.0114811 0.0
0.0 0.0 0.0 0.0 -0.25832474 0.2755464 0.0 -0.0918488
0.0 0.0 0.0 -0.22388144 -0.0918488 -0.14925429 0.0 0.3903574
0.0 0.0 0.0 0.0 0.0 0.0 -0.0344433 0.0
0.0 0.0 0.0 -0.0229622 -0.2181409 -0.0114811 0.0 0.0
0.0 0.46498454 0.0 0.0 0.0 0.1033299 0.0 0.0

Fly_DNN/dense/MatMul/ReadVariableOp/transpose i1 [512, 1200] scale=0.0020135262 zero_point=0
00000000: 0000 0000 0000 0000 0000 0000 0000 0000
00000010: 0000 0000 0000 0000 0000 0000 0000 0000
00000020: 0000 0000 0000 0000 0000 0000 0000 0000
00000030: 0000 0000 0000 0000 0000 0000 0000 0000
00000040: 0000 0000 0000 0000 0000 0000 0000 0000
00000050: 0000 0000 0000 0000 0000 0000 0000 0000
00000060: 0000 0000 0000 0000 0000 0000 0000 0000
00000070: 0000 0000 0000 0000 0000 0000 0000 0000
00000080: 0000 0000 0000 0000 0000 0000 0000 0000
00000090: 0000 0000 0000 0000 0000 0000 0000 0000
000000a0: 0000 0000 0000 0000 0000 0000 0000 0000
000000b0: 0000 0000 0000 0000 0000 0000 0000 0000
000000c0: 0000 0000 0000 0000 0000 0000 0000 0000
000000d0: 0000 0000 0000 0000 0000 0000 0000 0000
000000e0: 0000 0000 0000 0000 0000 0000 0000 0000
000000f0: 0000 0000 0000 0000 0000 0000 0000 0000
0.0 0.0 0.0 0.0 0.0 0.0 0.0 0.0
0.0 0.0 0.0 0.0 0.0 0.0 0.0 0.0
0.0 0.0 0.0 0.0 0.0 0.0 0.0 0.0
0.0 0.0 0.0 0.0 0.0 0.0 0.0 0.0
0.0 0.0 0.0 0.0 0.0 0.0 0.0 0.0
0.0 0.0 0.0 0.0 0.0 0.0 0.0 0.0
0.0 0.0 0.0 0.0 0.0 0.0 0.0 0.0
0.0 0.0 0.0 0.0 0.0 0.0 0.0 0.0
0.0 0.0 0.0 0.0 0.0 0.0 0.0 0.0
0.0 0.0 0.0 0.0 0.0 0.0 0.0 0.0
0.0 0.0 0.0 0.0 0.0 0.0 0.0 0.0
0.0 0.0 0.0 0.0 0.0 0.0 0.0 0.0
0.0 0.0 0.0 0.0 0.0 0.0 0.0 0.0
0.0 0.0 0.0 0.0 0.0 0.0 0.0 0.0
0.0 0.0 0.0 0.0 0.0 0.0 0.0 0.0
0.0 0.0 0.0 0.0 0.0 0.0 0.0 0.0
0.0 0.0 0.0 0.0 0.0 0.0 0.0 0.0
0.0 0.0 0.0 0.0 0.0 0.0 0.0 0.0
0.0 0.0 0.0 0.0 0.0 0.0 0.0 0.0
0.0 0.0 0.0 0.0 0.0 0.0 0.0 0.0
0.0 0.0 0.0 0.0 0.0 0.0 0.0 0.0
0.0 0.0 0.0 0.0 0.0 0.0 0.0 0.0
0.0 0.0 0.0 0.0 0.0 0.0 0.0 0.0
0.0 0.0 0.0 0.0 0.0 0.0 0.0 0.0
0.0 0.0 0.0 0.0 0.0 0.0 0.0 0.0
0.0 0.0 0.0 0.0 0.0 0.0 0.0 0.0
0.0 0.0 0.0 0.0 0.0 0.0 0.0 0.0
0.0 0.0 0.0 0.0 0.0 0.0 0.0 0.0
0.0 0.0 0.0 0.0 0.0 0.0 0.0 0.0
0.0 0.0 0.0 0.0 0.0 0.0 0.0 0.0
0.0 0.0 0.0 0.0 0.0 0.0 0.0 0.0
0.0 0.0 0.0 0.0 0.0 0.0 0.0 0.0

Fly_DNN/dense_1/MatMul/ReadVariableOp/transpose i1 [256, 512] scale=0.0028853787 zero_point=0
00000000: 00fc 0000 0000 0000 0000 0000 ff00 0000
00000010: 0000 0000 0000 ff00 0000 0000 0000 0000
00000020: 0000 0000 0000 0000 0000 0000 0000 0000
00000030: 0000 0000 0000 0000 0000 0000 0000 0000
00000040: 0000 0000 0000 0000 0000 0000 0000 0000
00000050: 0000 0000 0000 0000 0000 0000 0000 0000
00000060: 0000 0000 0000 0000 0000 0000 0000 0000
00000070: 0000 0000 0000 0000 0000 0000 0000 0000
00000080: 0000 0000 00fc 0000 0000 0000 0000 0000
00000090: 0000 0000 0000 0000 0000 0000 0000 0000
000000a0: fa00 0000 0000 0000 0000 0000 0000 0000
000000b0: 0000 0000 0000 0000 0000 0000 0000 0000
000000c0: 0000 0000 0000 0000 0000 0000 0000 0000
000000d0: 0000 0000 0000 0000 00ff 0000 0000 0000
000000e0: 0000 0000 0000 0000 0000 0000 0000 0000
000000f0: 0000 0000 0000 0000 0000 0000 0000 0000
0.0 -0.011541515 0.0 0.0 0.0 0.0 0.0 0.0
0.0 0.0 0.0 0.0 -0.0028853787 0.0 0.0 0.0
0.0 0.0 0.0 0.0 0.0 0.0 -0.0028853787 0.0
0.0 0.0 0.0 0.0 0.0 0.0 0.0 0.0
0.0 0.0 0.0 0.0 0.0 0.0 0.0 0.0
0.0 0.0 0.0 0.0 0.0 0.0 0.0 0.0
0.0 0.0 0.0 0.0 0.0 0.0 0.0 0.0
0.0 0.0 0.0 0.0 0.0 0.0 0.0 0.0
0.0 0.0 0.0 0.0 0.0 0.0 0.0 0.0
0.0 0.0 0.0 0.0 0.0 0.0 0.0 0.0
0.0 0.0 0.0 0.0 0.0 0.0 0.0 0.0
0.0 0.0 0.0 0.0 0.0 0.0 0.0 0.0
0.0 0.0 0.0 0.0 0.0 0.0 0.0 0.0
0.0 0.0 0.0 0.0 0.0 0.0 0.0 0.0
0.0 0.0 0.0 0.0 0.0 0.0 0.0 0.0
0.0 0.0 0.0 0.0 0.0 0.0 0.0 0.0
0.0 0.0 0.0 0.0 0.0 -0.011541515 0.0 0.0
0.0 0.0 0.0 0.0 0.0 0.0 0.0 0.0
0.0 0.0 0.0 0.0 0.0 0.0 0.0 0.0
0.0 0.0 0.0 0.0 0.0 0.0 0.0 0.0
-0.017312272 0.0 0.0 0.0 0.0 0.0 0.0 0.0
0.0 0.0 0.0 0.0 0.0 0.0 0.0 0.0
0.0 0.0 0.0 0.0 0.0 0.0 0.0 0.0
0.0 0.0 0.0 0.0 0.0 0.0 0.0 0.0
0.0 0.0 0.0 0.0 0.0 0.0 0.0 0.0
0.0 0.0 0.0 0.0 0.0 0.0 0.0 0.0
0.0 0.0 0.0 0.0 0.0 0.0 0.0 0.0
0.0 -0.0028853787 0.0 0.0 0.0 0.0 0.0 0.0
0.0 0.0 0.0 0.0 0.0 0.0 0.0 0.0
0.0 0.0 0.0 0.0 0.0 0.0 0.0 0.0
0.0 0.0 0.0 0.0 0.0 0.0 0.0 0.0
0.0 0.0 0.0 0.0 0.0 0.0 0.0 0.0
